runs/test/version_0/checkpoints/epoch=15-epoch=15.0000.ckpt (torch, 7108 bytes, 2 tensors)

network.layer.weight f4 [16, 3, 3, 3]
-0.0014408393 0.10323862 -0.15839511 -0.14163153 -0.074122995 0.05160691 -0.0038130484 0.15259165
-0.0170788 0.05092471 -0.058160935 -0.037829027 -0.1838569 -0.12745625 -0.079332374 0.0071290387
0.0760823 0.11547444 -0.13046983 -0.08380486 0.06990117 0.15980823 -0.039606262 0.14401266
-0.031019751 0.020363932 0.17425898 -0.17853025 -0.121154636 -0.048721675 -0.075017035 0.16627704
-0.12474223 -0.088591106 -0.13445342 -0.18024124 -0.112340905 0.16542973 0.085874766 0.09327528
0.0101212505 -0.09866599 0.032559607 -0.17968963 -0.13905793 -0.099213794 0.121424064 0.112837575
-0.08535066 -0.0069440585 0.12308352 0.19132102 0.076380014 0.025998631 0.12903516 -0.11331506
0.035861924 -0.14920762 -0.1333845 -0.099416554 0.08707848 0.077395804 -0.113998294 0.05814054
0.10564972 -0.024290543 0.0073480415 0.044591594 0.11939153 0.18478945 -0.14830658 -0.07052714
0.07563479 0.1594544 0.16747148 0.16980964 0.03830037 -0.16735126 0.017703965 -0.120397806
-0.17935467 0.17099045 0.14633131 -0.19197434 0.036021277 -0.032420143 -0.03166981 -0.08809535
0.07400787 -0.11398887 0.07055054 0.09732357 0.13776955 0.071959235 -0.19047464 -0.12484178
0.09609322 0.040280063 -0.15012725 -0.110816516 0.18104729 0.12967631 -0.08391308 -0.04843676
-0.18332759 -0.0034591246 -0.14492625 -0.14844766 -0.010603924 0.028895428 -0.07881414 0.11419557
-0.117113404 0.17462346 0.13188602 -0.16228987 -0.047897812 0.008683853 0.028078677 0.04564421
0.075522855 0.011527793 -0.09390193 0.091065265 -0.18460754 -0.11406645 -0.048176 -0.09374501
-0.067325465 -0.15773627 -0.04093705 0.041137446 -0.12537464 -0.009876416 0.13776556 -0.019783918
0.0053486144 -0.016602458 0.038948312 0.12236736 0.18229762 0.12221657 0.18271472 -0.013918309
-0.17288205 -0.091236204 0.13104028 -0.0012475542 -0.09565662 -0.14747676 -0.1801048 -0.16242945
-0.03903595 0.10554078 0.10404643 -0.185605 0.12004691 -0.15059401 -0.04068593 -0.078033246
-0.037068825 -0.03778617 -0.17269509 -0.1661687 -0.03011449 0.0024887994 -0.08742525 0.072495796
-0.17321631 -0.012987926 0.16924435 -0.07849885 0.17378303 0.06969652 -0.1736787 0.12176266
-0.022207677 -0.085911036 0.15389335 -0.155518 0.020650843 -0.040293027 0.13743104 0.05372139
0.0924733 0.06796547 -0.04627938 -0.040473305 -0.15859455 0.10427795 0.15280116 0.13167913
-0.13575011 0.008583253 -0.13566464 -0.10594073 -0.11214173 0.06576886 -0.114683546 -0.0041987235
0.008096014 0.12405776 -0.14547688 -0.13211934 -0.11174837 0.13470225 -0.06917907 0.16232948
0.0695914 0.024369188 -0.0014326031 -0.03804383 0.02414601 -0.043944955 -0.0013522379 0.024555292
-0.15053545 -0.10086914 0.15540205 -0.15618223 -0.013819109 0.19037908 0.0695201 0.005448847
-0.16677916 0.09533552 -0.1370785 -0.054629702 -0.06457015 -0.02849943 0.0021050742 0.15873428
0.024025245 0.17237617 0.11772412 -0.121669635 0.086314656 -0.13604221 -0.08156519 0.05660394
0.063545495 0.14438146 -0.061952736 0.00030808596 0.09907784 -0.18611698 0.13913769 -0.15914129
0.0026524437 -0.032719743 -0.10135826 0.025436327 0.15914059 -0.05625692 -0.11425648 -0.071175516
00000000: 8bda bcba c56e d33d 5432 22be db07 11be
00000010: cccd 97bd c461 533d 56e4 79bb fc40 1c3e
00000020: d7e8 8bbc 6e96 503d 293a 6ebd 9cf2 1abd
00000030: fc44 3cbe e483 02be 0379 a2bd b69a e93b
00000040: 09d1 9b3d dd7d ec3d e299 05be e2a1 abbd
00000050: 5828 8f3d c5a4 233e 2d3a 22bd 0e78 133e
00000060: 221d febc 43d2 a63c f270 323e a2d0 36be
00000070: ec1f f8bd 6190 47bd 88a2 99bd 8744 2a3e
00000080: db78 ffbd 416f b5bd 28ae 09be 2991 38be
00000090: fd12 e6bd 6966 293e 1cdf af3d 1c07 bf3d
000000a0: 9ad3 253c 6511 cabd 395d 053d 8f00 38be
000000b0: 3465 0ebe 9a30 cbbd 2ead f83d 6317 e73d
000000c0: 54cc aebd fc8a e3bb 3613 fc3d a8e9 433e
000000d0: 206d 9c3d 15fb d43c cb21 043e ba11 e8bd
000000e0: f4e3 123d e2c9 18be f295 08be e89a cbbd
000000f0: 3456 b23d b181 9e3d f077 e9bd c624 6e3d
00000100: e15e d83d f6fc c6bc d7c7 f03b ada5 363d
00000110: 8c83 f43d 7239 3d3e aedd 17be 8870 90bd
00000120: 6ae6 9a3d 0448 233e a57d 2b3e 94e2 2d3e
00000130: d9e0 1c3d 215e 2bbe e807 913c 2093 f6bd
00000140: c0a8 37be 1f18 2f3e e0d7 153e ec94 44be
00000150: 0c8b 133d fcca 04bd 34b8 01bd 566b b4bd
00000160: 7091 973d ff72 e9bd cd7c 903d 9451 c73d
00000170: 7613 0d3e 5d5f 933d c90b 43be 0cad ffbd
00000180: 86cc c43d b5fc 243d f5ba 19be c5f3 e2bd
00000190: 7664 393e dec9 043e 9fda abbd a065 46bd
000001a0: 3aba 3bbe 7bb2 62bb 8c67 14be aa02 18be
000001b0: 15bc 2dbc 1bb6 ec3c 4f69 a1bd 5edf e93d
000001c0: 27d9 efbd 7ed0 323e 210d 073e 512f 26be
000001d0: 7f30 44bd b846 0e3c 4105 e63c 6cf5 3a3d
000001e0: baab 9a3d 11df 3c3c a84f c0bd 6d80 ba3d
000001f0: c209 3dbe ac9b e9bd 3354 45bd 62fd bfbd
00000200: efe1 89bd 9e85 21be 9cad 27bd bd7f 283d
00000210: 3662 00be b1d0 21bc 6a12 0d3e e211 a2bc
00000220: 6e43 af3b e101 88bc 4488 1f3d bd9b fa3d
00000230: 3aac 3a3e ae4c fa3d 9119 3b3e 9e09 64bc
00000240: fe07 31be 0cda babd 6c2f 063e f984 a3ba
00000250: 9ee7 c3bd 2604 17be 656d 38be e853 26be
00000260: 29e4 1fbd c425 d83d 4b16 d53d 3d0f 3ebe
00000270: 28db f53d 5135 1abe 4aa6 26bd e5cf 9fbd
00000280: 7bd5 17bd acc5 1abd fbd6 30be 2128 2abe
00000290: aab2 f6bc 201b 233b 020c b3bd ad78 943d
000002a0: 9e5f 31be 4fcb 54bc 644e 2d3e 01c4 a0bd
000002b0: 2ef4 313e 0dbd 8e3d d4d8 31be b45e f93d
000002c0: e0ec b5bc 20f2 afbd 3896 1d3e 1c40 1fbe
000002d0: f52b a93c 4d0a 25bd b9ba 0c3e f60a 5c3d
000002e0: a462 bd3d 7b31 8b3d 728f 3dbd 56c7 25bd
000002f0: 9c66 22be ae8f d53d e877 1c3e e5d6 063e
00000300: 1402 0bbe c6a0 0c3c aceb 0abe 74f7 d8bd
00000310: 90aa e5bd d3b1 863d 35df eabd 7295 89bb
00000320: 25a5 043c ff11 fe3d e4f7 14be 4b4a 07be
00000330: 54dc e4bd 63ef 093e c2ad 8dbd b339 263e
00000340: f085 8e3d e4a1 c73c 2fc6 bbba d9d3 1bbd
00000350: dacd c53c a0ff 33bd 933d b1ba 2e28 c93c
00000360: f725 1abe 7b94 cebd b721 1f3e 3cee 1fbe
00000370: 8b69 62bc bcf2 423e 8e60 8e3d 3e8c b23b
00000380: 28c8 2abe 453f c33d 4e5e 0cbe 65c3 5fbd
00000390: 5b3d 84bd a377 e9bc 49f5 093b 3d8b 223e
000003a0: 97d0 c43c 6183 303e 5819 f13d ee2d f9bd
000003b0: bdc5 b03d a64e 0bbe a60b a7bd 88d9 673d
000003c0: 2424 823d bcd8 133e 27c2 7dbd 9986 a139
000003d0: 53e9 ca3d 7395 3ebe 1c7a 0e3e eff5 22be
000003e0: 9fd4 2d3b 2305 06bd eb94 cfbd d85f d03c
000003f0: c0f5 223e a86d 66bd 4dff e9bd 78c4 91bd

network.layer.bias f4 [16]
0.16334742 0.012622485 -0.12826562 -0.06895197 0.042024195 -0.14670818 0.09561119 -0.17471959
-0.18500099 -0.18699618 -0.03904107 0.12940978 -0.18214996 0.15996204 -0.076984435 0.056365576
00000000: 8c44 273e 8ace 4e3c 1058 03be b136 8dbd
00000010: 9021 2c3d ab3a 16be cdcf c33d b1e9 32be
00000020: e670 3dbe ed7b 3fbe 87e9 1fbd ff83 043e
00000030: 8585 3abe 17cd 233e 04aa 9dbd 97df 663d
